dl-inference/model/model_mskf.onnx (onnx, 272005 bytes, 13 tensors)

conv1d.weight f4 [1, 64, 1]
-0.6368868 4.9225764 -33.960835 1.273229 -7.421709 -26.643574 28.826132 29.834965
-6.434595 27.869646 25.6088 -43.499695 7.3644156 -1.9745983 -6.7572236 -20.648792
28.106926 -27.20591 15.816245 25.178476 -5.4223547 30.846031 -13.134124 0.20162593
-26.755323 52.04318 -5.667103 -9.043392 4.2566743 6.0738745 28.669813 13.869896
-13.541199 -2.028047 -27.050587 11.953001 31.003979 -26.923735 11.504669 29.207285
21.912361 12.195737 76.45506 -7.5188684 -10.97333 -24.991217 18.769228 -24.816584
8.040016 5.615355 -17.879677 7.0193686 30.617983 -7.757408 8.805546 1.1946144
-3.403844 8.714452 -40.2309 1.954349 4.440502 -12.789313 9.164172 3.9723034
00000000: 030b 23bf bf85 9d40 e5d7 07c2 2bf9 a23f
00000010: a47e edc0 0a26 d5c1 eb9b e641 02ae ee41
00000020: 34e8 cdc0 09f5 de41 d3de cc41 b0ff 2dc2
00000030: 4ba9 eb40 a3bf fcbf 2d3b d8c0 ba30 a5c1
00000040: fcda e041 b4a5 d9c1 570f 7d41 856d c941
00000050: ee83 adc0 acc4 f641 5f25 52c1 0777 4e3e
00000060: e70a d6c1 372c 5042 e858 b5c0 bcb1 10c1
00000070: ad36 8840 2e5d c240 c75b e541 18eb 5d41
00000080: c0a8 58c1 86cb 01c0 9a67 d8c1 7e3f 3f41
00000090: 2608 f841 cf63 d7c1 2013 3841 85a8 e941
000000a0: 844c af41 bd21 4341 fee8 9842 929a f0c0
000000b0: c292 2fc1 03ee c7c1 6127 9641 5d88 c6c1
000000c0: e8a3 0041 fdb0 b340 9409 8fc1 ab9e e040
000000d0: a1f1 f441 b03c f8c0 84e3 0c41 20e9 983f
000000e0: 95d8 59c0 656e 0b41 71ec 20c2 1c28 fa3f
000000f0: 9818 8e40 07a1 4cc1 73a0 1241 383a 7e40

reg_final.weight f4 [8, 64, 1]
-0.18981889 -0.08446427 -0.18943319 0.25883946 1.1348456 0.04652105 0.3497901 -4.055432
-1.3302784 -1.6358689 -0.36168778 -2.476325 -0.041165173 -1.6821157 -1.7869837 0.07919725
-0.3751407 -0.01927942 0.053576615 -0.17979726 0.37922645 -0.018465951 -0.030194253 -2.3655007
0.121170886 -0.13681626 -1.4847811 0.22243631 -0.9866538 0.37180594 -0.20725346 -0.13373168
-10.07167 -0.02146545 -0.02775024 -6.116962 0.117474236 1.0843066 1.6426436 -2.588642
0.23787534 2.6183004 -0.4522465 -0.8436009 1.0795604 0.01315787 0.41271564 -0.0010126394
0.31050846 0.43728057 -2.365757 -2.4170177 0.55306077 3.4443204 -5.015951 0.5864214
0.29624483 0.7716277 0.1879575 -3.0634713 -0.90570265 0.34628353 0.11808712 -1.067952
-13.571926 -13.321571 -8.469511 11.222712 4.5458574 -7.7451944 7.9038763 -7.62934
-5.4691143 9.453562 9.393265 -10.728774 4.032049 -3.413712 -7.7410192 7.690735
-12.047463 -5.553466 -13.17091 -9.544132 13.83567 17.130188 -11.59481 -8.285656
3.1964955 -1.9744822 -3.0402243 5.6786647 13.754405 -12.072962 -6.913083 -0.56264734
-1.2925531 18.054169 -20.260494 -9.887684 10.716348 -10.498712 9.570247 7.184234
-2.4985335 6.469438 -7.785428 -10.952179 8.210336 -17.104565 -7.9480367 -6.6334524
7.729553 21.063595 10.0281725 -9.846546 6.3430123 11.627631 -6.5511317 7.029342
7.7447863 8.366206 -9.695907 8.561301 -0.7105178 12.863093 8.413766 -10.192007
5.8914914 6.428452 -0.17926565 9.839627 -0.9658632 0.025412556 -0.73632157 -1.0035372
-0.1375449 0.03780542 -0.7766399 0.20296952 6.510431 -44.7698 -1.8191631 -1.4633797
-3.929369 -0.0036163465 -0.172129 -3.6536534 -1.7297376 0.11133207 3.1691418 -1.592456
-0.10097428 -1.267845 -2.5356941 -46.186245 -5.5209 1.3991234 -0.16844334 0.3463731
-0.51598364 8.214824 -0.2182435 31.96171 -0.022075238 -0.06896436 -2.0732546 0.45886406
1.1889988 -2.712176 -0.09821669 -3.521727 38.59011 -3.1439798 0.019782968 0.081436075
-31.487932 -28.098232 -0.14309488 11.829889 0.12700866 12.801546 0.8076808 -2.230765
-5.9420285 0.6107557 0.066135965 1.035045 -1.0783124 0.009454304 -39.955635 -23.498964
28.012335 -58.567524 0.19480222 57.217503 0.061672 0.012339992 -4.8465705 46.556194
1.0465039 0.07962994 0.97725296 -0.48378834 -13.96593 35.261005 5.3787546 -1.2631441
24.295523 0.45033702 0.05721989 3.8161712 -1.7361081 -0.27313304 2.1510708 20.462343
-0.07275582 2.4394946 -1.3623497 11.795187 26.872013 -40.74244 0.016052417 -0.31342652
-0.24671419 -35.44742 -0.16508044 -21.88755 -0.087343715 0.079875976 -9.149163 0.124425046
-2.7368956 65.56401 0.19474946 8.306878 -43.65974 4.219828 0.36909258 -0.018852903
49.878674 -60.96039 0.20828296 -33.444603 -0.032988768 -10.515276 -61.475044 4.1157866
64.42188 0.797313 -0.006650623 -0.19533533 -1.356552 0.0042280224 34.481216 -9.228136
00000000: e25f 42be 9afb acbd c6fa 41be 9b86 843e
00000010: 9f42 913f db8c 3e3d b017 b33e 19c6 81c0
00000020: 9046 aabf 2764 d1bf 242f b9be 1c7c 1ec0
00000030: d09c 28bd 914f d7bf e2bb e4bf 2b32 a23d
00000040: 7112 c0be e0ef 9dbc 2773 5b3d c61c 38be
00000050: f829 c23e e845 97bc f059 f7bc 5d64 17c0
00000060: 7128 f83d 9019 0cbe 4f0d bebf 58c6 633e
00000070: 5895 7cbf 595d be3e 403a 54be f5f0 08be
00000080: 8f25 21c1 50d8 afbc 7954 e3bc 27be c3c0
00000090: 5596 f03d 8fca 8a3f 2542 d23f 4fac 25c0
000000a0: 9895 733e 3c92 2740 da8c e7be 3bf6 57bf
000000b0: 092f 8a3f 1b94 573c 774f d33e 8aba 84ba
000000c0: f7fa 9e3e 3de3 df3e 9068 17c0 6bb0 1ac0
000000d0: 6495 0d3f bf6f 5c40 ac82 a0c0 b61f 163f
000000e0: 67ad 973e 6589 453f ee77 403e ea0f 44c0
000000f0: 21dc 67bf 134c b13e a9d7 f13d a7b2 88bf
00000100: 9c26 59c1 2825 55c1 1e83 07c1 3a90 3341
00000110: aa77 9140 a2d8 f7c0 8eec fc40 8e23 f4c0
00000120: fc02 afc0 ca41 1741 d04a 1641 0fa9 2bc1
00000130: 8c06 8140 427a 5ac0 6eb6 f7c0 801a f640
00000140: 69c2 40c1 feb5 b1c0 0cbc 52c1 c4b4 18c1
00000150: e85e 5d41 a00a 8941 5784 39c1 0c92 04c1
00000160: 6293 4c40 d5bb fcbf 0993 42c0 9fb7 b540
00000170: 0b12 5c41 da2a 41c1 fa37 ddc0 a809 10bf
00000180: 6172 a5bf f06e 9041 7e15 a2c1 f433 1ec1
00000190: 2976 2b41 b9fa 27c1 bb1f 1941 3fe5 e540
000001a0: f9e7 1fc0 a305 cf40 3a22 f9c0 203c 2fc1
000001b0: 895d 0341 26d6 88c1 5156 fec0 3e45 d4c0
000001c0: 8058 f740 3e82 a841 6573 2041 748b 1dc1
000001d0: f5f9 ca40 c70a 3a41 dfa2 d1c0 5ff0 e040
000001e0: 4ad5 f740 fbdb 0541 6f22 1bc1 17fb 0841
000001f0: 7fe4 35bf 3bcf 4d41 c99e 0641 7612 23c1
00000200: 1987 bc40 e1b5 cd40 6a91 37be 1d6f 1d41
00000210: d042 77bf fe2d d03c 927f 3cbf e873 80bf
00000220: 92d8 0cbe dbd9 1a3d dfd1 46bf 3ed7 4f3e
00000230: 7355 d040 4614 33c2 56da e8bf 0750 bbbf
00000240: c87a 7bc0 3a00 6dbb 9642 30be 75d5 69c0
00000250: 0b68 ddbf 1102 e43d 38d3 4a40 99d5 cbbf
00000260: 9acb cebd bf48 a2bf d048 22c0 b7be 38c2
00000270: 36ab b0c0 7a16 b33f 697c 2cbe d157 b13e
00000280: 8117 04bf eb6f 0341 397b 5fbe 95b1 ff41
00000290: 21d7 b4bc 303d 8dbd 34b0 04c0 3bf0 ea3e
000002a0: 1d31 983f 4b94 2dc0 d525 c9bd fa63 61c0
000002b0: 465c 1a42 f736 49c0 e40f a23c f5c7 a63d
000002c0: 49e7 fbc1 2ec9 e0c1 7787 12be 3a47 3d41
000002d0: 8f0e 023e 22d3 4c41 2bc4 4e3f dbc4 0ec0
000002e0: 1925 bec0 7c5a 1c3f 4b72 873d 5b7c 843f
000002f0: 2406 8abf 3ae6 1a3c 92d2 1fc2 e1fd bbc1
00000300: 4319 e041 2545 6ac2 3c7a 473e b9de 6442
00000310: c79b 7c3d ae2d 4a3c 1b17 9bc0 8b39 3a42
00000320: d7f3 853f 0615 a33d 402d 7a3f 1bb3 f7be
00000330: 7374 5fc1 450b 0d42 c21e ac40 b5ae a1bf
00000340: 3b5d c241 9392 e63e 675f 6a3d 263c 7440
00000350: ca38 debf 18d8 8bbe 25ab 0940 e1b2 a341
00000360: 0101 95bd ae20 1c40 7a61 aebf 16b9 3c41
00000370: e2f9 d641 42f8 22c2 5c80 833c 7179 a0be
00000380: a5a2 7cbe 28ca 0dc2 d90a 29be b419 afc1
00000390: 43e1 b2bd 0496 a33d f962 12c1 8fd2 fe3d
000003a0: 4c29 2fc0 c620 8342 676c 473e f9e8 0441
000003b0: 93a3 2ec2 d508 8740 b4f9 bc3e 6771 9abc
000003c0: c383 4742 70d7 73c2 2148 553e 46c7 05c2
000003d0: 3b1f 07bd 923e 28c1 72e6 75c2 86b4 8340
000003e0: 01d8 8042 b41c 4c3f 78ed d9bb fc05 48be
000003f0: 7fa3 adbf 398b 8a3b c4ec 0942 72a6 13c1

reg_final.bias f4 [8]
0.008446961 -0.009806933 0.002428929 -0.0009996444 0.0013646374 0.011096723 0.0008152649 -0.00021533252
00000000: 1f65 0a3c 42ad 20bc ab2e 1f3b 8006 83ba
00000010: a2dd b23a 08cf 353c 80b7 553a e2ca 61b9

onnx::LSTM_482 f4 [2, 256]
0.618534 0.18917252 -0.18897924 0.08488171 0.06464884 1.3753879 0.39847356 -0.12310849
0.044986013 -0.8661772 -0.70203954 0.49656788 0.30318984 -0.60625416 -0.46782786 0.012597524
-0.055514667 -0.18723 -0.24630603 -0.039979815 0.26415625 -0.3625226 0.15002806 -0.6018783
1.1039943 0.73819816 -0.13338873 0.8468626 0.44136098 0.9676089 0.11102579 -0.046021204
0.5760984 0.23863204 0.2131105 -0.019443046 -0.22453125 0.21793962 0.55442023 -0.28855714
-0.21696946 -0.14328761 0.3048429 0.14829029 0.7352824 0.14902298 -0.22681893 0.25893724
0.43086037 -0.7059653 -0.2561944 -0.35990807 -0.24129222 -0.5667126 0.09579321 -0.1373034
0.9452428 0.2221404 0.092070594 0.25713143 0.49029446 1.1399348 0.270401 0.32811636
0.600673 0.18034369 -0.033885498 0.1409752 0.041826643 1.2362323 0.23220254 0.36927047
-0.021307785 0.115050636 0.36295763 0.039799977 0.15689974 -0.5575503 -1.6130843 0.31342536
0.12700121 -0.40707633 0.116832 0.08443731 0.21540718 -0.25880858 -0.31259882 0.22172189
0.810444 0.07418185 0.8487669 0.58020455 0.49832815 0.86522925 0.046421137 0.24107581
0.57776874 0.2249152 0.1844019 0.425491 -0.13760263 0.1723222 0.98377436 0.31675526
-0.48479623 0.6824003 -0.26050422 0.09651918 0.52060187 -0.27674067 0.19295935 -0.16035895
-0.28974438 0.8634711 0.28908768 -0.5589884 -0.31737727 -0.16729596 -0.62668 -0.11532284
0.10015314 0.7292569 0.28291658 -0.5194268 0.09352814 -1.1271813 0.016300162 1.15914
0.6360239 0.085493885 -0.11764208 -0.057399455 -0.013556444 1.1172626 0.6586042 -0.36219177
0.04655771 -0.86477244 -0.66246927 0.4783253 0.40024197 -0.47251213 -0.48598713 0.11661402
0.069999956 -0.087857336 -0.44052103 -0.14325343 0.014101529 -0.5883124 -0.09593934 -0.7388797
1.1692501 0.6588463 -0.008943768 0.8021026 0.25785032 1.1346284 -0.025920348 -0.1268912
0.5202186 0.059463993 0.3616621 0.05949188 -0.22867619 0.22244558 0.4251166 -0.4953845
-0.15530187 0.011192888 0.28395557 0.36845306 0.767566 0.20139359 -0.33672082 0.043155883
0.24348196 -0.5596376 0.005826729 -0.1743149 -0.030105041 -0.48136532 0.11434019 -0.26566184
1.268966 0.21391064 -0.19583927 0.21315189 0.645252 1.3499156 0.2658067 0.19475798
0.29515743 0.14002782 0.013488875 0.124567814 0.08107997 1.279709 0.10519094 0.45269144
-0.077781014 0.1605354 0.18127607 0.042567607 0.3651762 -0.25067908 -1.5694695 0.10005116
-0.12537836 -0.20417169 0.19052678 -0.09816724 0.117773026 -0.377826 -0.16651958 0.32952276
0.74708897 0.028245565 0.79451627 0.61904085 0.60750335 0.67232853 0.32277104 0.14816587
0.812235 -0.018147118 -0.034517232 0.5898085 -0.25437325 0.09228184 1.2922078 0.2972346
-0.3514218 0.62146527 -0.1596507 0.21729721 0.65393025 -0.36729744 0.46599957 -0.1642453
-0.07157793 0.72585016 0.2268549 -0.2836881 -0.50871867 -0.36068618 -0.47932646 -0.30490062
0.03656082 0.7488395 0.34640014 -0.71956277 0.29241684 -0.94174945 0.022573717 1.220192
00000000: 3f58 1e3f 71b6 413e c683 41be 76d6 ad3d
00000010: 9c66 843d b60c b03f ba04 cc3e 4e20 fcbd
00000020: 4143 383d cabd 5dbf ddb8 33bf 253e fe3e
00000030: b33b 9b3e 7933 1bbf 2287 efbe d865 4e3c
00000040: 5963 63bd 39b9 3fbe a637 7cbe e0c1 23bd
00000050: 7d3f 873e 909c b9be f5a0 193e b214 1abf
00000060: af4f 8d3f 8efa 3c3f 0e97 08be fdcb 583f
00000070: 11fa e13e 38b5 773f 7d61 e33d bb80 3cbd
00000080: 2f7b 133f f55b 743e a439 5a3e 0647 9fbc
00000090: 85eb 65be 902b 5f3e 7cee 0d3f c3bd 93be
000000a0: 3e2d 5ebe fdb9 12be 5e14 9c3e 69d9 173e
000000b0: 783b 3c3f 7b99 183e 3943 68be 6c93 843e
000000c0: bb99 dc3e 24ba 34bf ea2b 83be df45 b8be
000000d0: 4f15 77be 1414 11bf 3b2f c43d 4399 0cbe
000000e0: 6ffb 713f c678 633e 828f bc3d bba6 833e
000000f0: e007 fb3e 62e9 913f 0072 8a3e defe a73e
00000100: b5c5 193f 04ac 383e 85cb 0abd ce5b 103e
00000110: 6a52 2b3d dc3c 9e3f 81c6 6d3e 0511 bd3e
00000120: aa8d aebc ab9f eb3d 95d5 b93e 4d05 233d
00000130: 53aa 203e 9ebb 0ebf 8c79 cebf 4a79 a03e
00000140: 9b0c 023e 4f6c d0be 9e45 ef3d 78ed ac3d
00000150: b393 5c3e 8f82 84be f40c a0be 100b 633e
00000160: 4279 4f3f a7ec 973d ca48 593f 4988 143f
00000170: de24 ff3e aa7f 5d3f 1724 3e3d 94dc 763e
00000180: a7e8 133f 2c50 663e dad3 3c3e f5d9 d93e
00000190: b4e7 0cbe 3b75 303e a3d8 7b3f bf2d a23e
000001a0: 3637 f8be c9b1 2e3f cf60 85be d9ab c53d
000001b0: 2a46 053f f4b0 8dbe 2397 453e 2335 24be
000001c0: 6059 94be 710c 5d3f 4d03 943e dd19 0fbf
000001d0: 467f a2be a24f 2bbe 1a6e 20bf 622e ecbd
000001e0: 171d cd3d 95b0 3a3f 71da 903e 28f9 04bf
000001f0: ae8b bf3d 7a47 90bf eb87 853c b35e 943f
00000200: 76d2 223f 6b17 af3d 55ee f0bd b11b 6bbd
00000210: d91b 5ebc 7602 8f3f 499a 283f 3371 b9be
00000220: 4cb3 3e3d ba61 5dbf 9697 29bf 0ee7 f43e
00000230: 84ec cc3e 1ced f1be 4ed3 f8be 55d3 ee3d
00000240: 235c 8f3d 8cee b3bd f98b e1be 07b1 12be
00000250: 190a 673c a49b 16bf d87b c4bd 3827 3dbf
00000260: fda9 953f 27aa 283f e288 12bc 9956 4d3f
00000270: f504 843e 813b 913f e956 d4bc c4ef 01be
00000280: 0c2d 053f 8490 733d c62b b93e c2ad 733d
00000290: 172a 6abe c6c8 633e e2a8 d93e 0aa3 fdbe
000002a0: 7407 1fbe 6062 373c a062 913e e1a5 bc3e
000002b0: 357f 443f 1f3a 4e3e ac66 acbe 39c4 303d
000002c0: 5653 793e 6944 0fbf 25ee be3b 9b7f 32be
000002d0: d99e f6bc 8475 f6be 312b ea3d d404 88be
000002e0: 7a6d a23f 640b 5b3e 178a 48be 7d44 5a3e
000002f0: 3c2f 253f 09ca ac3f d117 883e a36e 473e
00000300: e01e 973e 7463 0f3e 7100 5d3c 691d ff3d
00000310: 410d a63d 81cd a33f 596e d73d 2cc7 e73e
00000320: a74b 9fbd 6463 243e 6fa0 393e 5f5b 2e3d
00000330: 60f8 ba3e 0259 80be 60e4 c8bf 9fe7 cc3d
00000340: 2f63 00be 6212 51be 7419 433e e80b c9bd
00000350: fc32 f13d 6972 c1be 1c84 2abe 35b7 a83e
00000360: 3941 3f3f 3e63 e73c 6b65 4b3f 7679 1e3f
00000370: 5785 1b3f b91d 2c3f 3f42 a53e cbb8 173e
00000380: a2ee 4f3f 44a9 94bc f161 0dbd b1fd 163f
00000390: 363d 82be 43fe bc3d 1167 a53f 222f 983e
000003a0: 8fed b3be 5918 1f3f 797b 23be 2983 5e3e
000003b0: f967 273f 690e bcbe 7f97 ee3e ec2f 28be
000003c0: 7397 92bd 51d1 393f a74c 683e 913f 91be
000003d0: 633b 02bf dcab b8be 476a f5be ef1b 9cbe
000003e0: ccc0 153d f2b3 3f3f 5c5b b13e 4435 38bf
000003f0: a9b7 953e 7e16 71bf 84ec b83c 402f 9c3f

onnx::LSTM_483 f4 [2, 128, 27]
2.9188554 0.09483072 -1.3814087 -0.8407105 -0.14137594 -0.6046798 0.26119864 9.691511
0.51659274 -0.043763455 -0.7312104 0.7679596 -2.0966098 -0.69030815 0.19167535 1.3324261
0.06988605 0.10607004 -0.11984418 -0.07697968 0.06420832 0.14679323 -0.036380675 1.8153269
-2.1396663 0.31258762 0.74521327 -0.70463145 -0.11128763 -0.57036793 -1.8213638 -3.43527
-1.2300322 0.51151323 19.204538 -0.13822408 -0.59689665 -0.13802323 0.23116882 0.38275316
-0.17295468 -0.08602077 -2.5721273 -0.16505547 -0.12773287 -0.091133684 0.111535124 0.103647925
-0.07839958 -0.006378525 -1.3633997 0.43521807 -1.2467386 1.0848604 -0.03618054 -0.10408653
-0.3919507 0.32015434 -0.2770705 0.3438697 0.17142668 -0.37029028 -0.4360889 -2.2476478
-1.111177 -0.067017876 3.7368846 -0.9817632 -0.38681424 0.11207663 -0.13622828 -0.064783305
0.06947499 0.14646822 0.15383238 0.15598011 0.03518113 -0.16356069 2.963729 -1.551763
-1.3451737 -0.9618661 0.13441388 -0.43283564 0.22363111 2.7328274 0.29194528 -0.46990323
-1.2456692 -0.063638546 -0.4445725 -0.7867594 0.43890655 0.5415404 -0.9563694 -0.26948726
0.23976204 0.036999602 -0.13790067 -0.101791464 0.16630255 0.11911529 -0.07707908 -0.044492003
-0.06771549 -0.41210756 -0.49417925 -0.1996919 -0.7450955 0.026542146 -3.3317602 -6.7907352
0.9392083 1.0062782 -0.16212459 2.4307308 -0.08591181 0.31103855 -0.082334064 0.03284953
-0.2180683 -0.14633952 -0.18089442 0.14113666 -0.16957285 -0.104776725 -0.044252485 -0.08611029
-0.061842386 -0.14489001 -0.03760308 0.22300324 -0.4198117 0.62816465 -0.2297362 -1.8163921
0.0049130158 -2.228399 -0.33349574 -1.8233192 1.4178364 1.3407546 4.7100387 0.91347903
0.07291002 -1.9985448 1.9163575 1.7602854 -1.7102014 0.18793108 2.049417 -0.14920098
-0.03585681 0.0969454 0.09557274 -0.17048907 0.11027013 -0.13832943 2.1675942 -0.7275758
-0.25455183 1.4350148 0.94160414 -0.1526357 0.04814742 -0.930083 0.054866236 -0.19951594
-0.85913 -7.6040516 0.6611326 -1.896994 -0.37982306 0.9171295 -1.1372243 -0.3912505
0.1962128 0.06719026 0.14136006 -0.1428524 0.01896901 -0.037011508 0.12623847 0.049346246
0.08494215 -0.06432032 -2.0290847 1.0339029 -2.2012477 -0.0267293 0.14035682 -0.3303069
0.052366376 -0.9361143 0.36427298 0.46339294 3.2786813 -0.21516211 -0.8081228 -0.5870413
-0.15109646 5.060496 -0.59858114 -0.42482913 -1.7537143 0.12373191 -0.06354503 0.14910914
0.06392378 0.022384528 -0.0013159299 -0.03494549 -1.3236289 4.386646 -1.5319067 0.36448908
-0.11667079 -0.09265422 -10.271031 -7.933597 0.48705903 -1.1628011 0.29199058 -5.3778005
-0.046872955 -0.6776176 -0.25446063 0.117368266 0.60228974 -0.12612042 0.05387233 0.49091408
0.022068596 0.15833761 0.108136505 -0.11176069 0.07928507 -0.12496275 -0.074922405 0.13045634
0.5584667 0.32032007 -0.6783954 -0.55168676 0.091008805 -0.15023506 -0.17433916 0.7471388
0.17324717 0.075511515 1.045111 -0.8602098 1.5677187 -0.6224544 -1.1214741 -1.267003
00000000: 87ce 3a40 9c36 c23d 00d2 b0bf ce38 57bf
00000010: dbc4 10be 4ccc 1abf d4bb 853e 6e10 1b41
00000020: 6c3f 043f 4f41 33bd 9b30 3bbf 0099 443f
00000030: db2e 06c0 09b8 30bf 8b46 443e f08c aa3f
00000040: 6b20 8f3d 403b d93d de70 f5bd 86a7 9dbd
00000050: a77f 833d f750 163e e703 15bd a25c e83f
00000060: 4bf0 08c0 7c0b a03e 4cc6 3e3f ba62 34bf
00000070: c5ea e3bd a203 12bf 7322 e9bf 77db 5bc0
00000080: b271 9dbf 88f2 023f e5a2 9941 9d8a 0dbe
00000090: 38ce 18bf f655 0dbe 85b7 6c3e 39f8 c33e
000000a0: 081b 31be a82b b0bd bc9d 24c0 4d04 29be
000000b0: 68cc 02be 4ca4 babd 876c e43d 5d45 d43d
000000c0: f68f a0bd f202 d1bb e283 aebf e7d4 de3e
000000d0: 2195 9fbf b5dc 8a3f 0c32 14bd 522b d5bd
000000e0: c3ad c8be 45eb a33e 2fdc 8dbe b00f b03e
000000f0: 7a8a 2f3e b096 bdbe 0b47 dfbe 76d9 0fc0
00000100: 0c3b 8ebf ab40 89bd 1e29 6f40 d554 7bbf
00000110: 840c c6be 6f88 e53d 6d7f 0bbe 1cad 84bd
00000120: e748 8e3d c4fb 153e 3c86 1d3e 40b9 1f3e
00000130: 171a 103d 747c 27be bcad 3d40 2ca0 c6bf
00000140: a72e acbf db3c 76bf cba3 093e a29c ddbe
00000150: 8eff 643e a5e6 2e40 da79 953e 2897 f0be
00000160: 1772 9fbf ed54 82bd 029f e3be 1069 49bf
00000170: 5cb8 e03e 64a2 0a3f a0d4 74bf 3cfa 89be
00000180: 2e84 753e e58c 173d d535 0dbe 0b78 d0bd
00000190: 374b 2a3e b8f2 f33d a3db 9dbd 3f3d 36bd
000001a0: 6bae 8abd c3ff d2be 1005 fdbe 097c 4cbe
000001b0: 94be 3ebf ea6e d93c 8f3b 55c0 b44d d9c0
000001c0: f56f 703f b9cd 803f fd03 26be 1891 1b40
000001d0: 88f2 afbd 7240 9f3e c39e a8bd 3b8d 063d
000001e0: 4c4d 5fbe 07da 15be 633c 39be 2186 103e
000001f0: 81a4 2dbe 2e95 d6bd 1842 35bd 975a b0bd
00000200: 714e 7dbd 0c5e 14be b005 1abd f65a 643e
00000210: 8ff1 d6be 66cf 203f f73f 6bbe 897f e8bf
00000220: 5dfd a03b 179e 0ec0 f4bf aabe 8662 e9bf
00000230: aa7b b53f d99d ab3f a3b8 9640 c3d9 693f
00000240: d951 953d 51d0 ffbf 344b f53f 0851 e13f
00000250: e1e7 dabf 0171 403e a629 0340 24c8 18be
00000260: 97de 12bd 4f8b c63d a4bb c33d b094 2ebe
00000270: 4ed5 e13d 3ba6 0dbe ddb9 0a40 6842 3abf
00000280: 9e54 82be 91ae b73f f80c 713f 884c 1cbe
00000290: 3b36 453d eb19 6ebf 6bbb 603d e84d 4cbe
000002a0: f2ef 5bbf 6454 f3c0 fc3f 293f b3d0 f2bf
000002b0: 2b78 c2be 00c9 6a3f 9190 91bf fc51 c8be
000002c0: 02ec 483e 0c9b 893d b1c0 103e e647 12be
000002d0: e664 9b3c 6199 17bd a844 013e 4a1f 4a3d
000002e0: 26f6 ad3d 5fba 83bd 86dc 01c0 ee56 843f
000002f0: 3ee1 0cc0 68f7 dabc b3b9 0f3e fc1d a9be
00000300: 207e 563d 30a5 6fbf fd81 ba3e d741 ed3e
00000310: ead5 5140 7553 5cbe 23e1 4ebf 5748 16bf
00000320: 08b9 1abe 95ef a140 9d3c 19bf 3483 d9be
00000330: b679 e0bf 2867 fd3d e623 82bd 11b0 183e
00000340: 79ea 823d c25f b73c 487b acba 0123 0fbd
00000350: ac6c a9bf 675f 8c40 8515 c4bf 509e ba3e
00000360: 18f1 eebd 7fc1 bdbd 2556 24c1 07e0 fdc0
00000370: cd5f f93e abd6 94bf ca7f 953e f116 acc0
00000380: dbfd 3fbd 5978 2dbf aa48 82be c65e f03d
00000390: a92f 1a3f b625 01be 3ba9 5c3d 1759 fb3e
000003a0: 33c9 b43c 4123 223e ac76 dd3d cae2 e4bd
000003b0: 3660 a23d 78ec ffbd eb70 99bd 5996 053e
000003c0: acf7 0e3f fe00 a43e 52ab 2dbf 583b 0dbf
000003d0: d362 ba3d 38d7 19be f785 32be 7d44 3f3f
000003e0: b567 313e c8a5 9a3d 32c6 853f b636 5cbf
000003f0: 02ab c83f 2c59 1fbf 778c 8fbf 282d a2bf

onnx::LSTM_484 f4 [2, 128, 32]
-0.8485037 -1.1694969 -1.8075722 5.5453496 -0.9107182 -5.0126 -0.9011909 0.4013781
-0.17482899 4.5656013 5.224358 5.904279 -0.69978845 5.0084653 -1.9388086 7.9962816
-0.05825472 -6.285049 -0.54156554 -6.403903 6.898984 -1.370924 3.5512176 -5.238327
-11.866342 -5.1535234 -0.28213167 -2.7973442 -0.6947822 1.7530125 1.5572116 -5.4020405
5.6254587 -1.0493037 2.1208205 2.417323 -5.856005 8.890877 3.895052 -1.942287
2.2689629 -0.9936855 -2.6353803 1.9578753 3.407309 0.21811283 -7.4853578 -0.5215389
3.746278 -5.6483293 -1.3072544 1.3818036 -3.7445405 1.3551003 4.0983925 7.4403625
1.1234744 0.32488078 0.29489836 -4.921818 -1.8876128 -4.0550966 0.83069575 -1.2199147
0.69015974 1.8986939 -0.22278056 -0.8137855 -0.8907737 1.6082956 -0.7075581 2.0030413
-0.76842016 0.53668386 1.0899905 2.056951 2.251183 0.21210173 3.6573443 -1.73702
0.73571324 -2.772952 0.43415353 -0.81405133 3.0852582 1.3800954 -0.7124104 1.015608
-0.94682837 1.8570709 -0.3602053 2.7186272 -0.08363592 1.5060326 -0.2552901 -1.688432
-1.3376073 -1.7434317 0.067786366 -1.0344688 -0.90129215 -3.6791928 2.348863 0.6209965
0.11256473 0.9276405 -3.9949293 -7.155651 -2.1307797 3.0511148 4.499137 -0.00994796
4.272597 -0.43706924 1.3160102 3.6422613 -1.3660083 -0.06699628 -0.1366448 -2.510311
0.80741143 0.34985358 -7.2141633 -2.952968 -2.0903625 -0.0653152 -1.3895663 -0.3943034
-1.0015705 -0.23015843 7.6962748 0.13626 2.7924347 -3.080528 0.038270086 -1.555417
2.8314497 -2.5874264 -4.6261015 -1.6225374 -0.4910016 -5.659696 -0.91951555 1.4955342
1.096726 -1.2142446 -3.099804 -1.3932759 -2.2748046 1.7274559 1.7232794 -1.3090078
-1.1378077 -2.450741 -4.159114 -0.3462157 -1.6130784 1.0075637 -4.01169 0.62222713
0.4468004 4.2971473 -1.7207823 -1.7081456 -5.599612 0.40211415 -0.47742212 -3.4741302
-3.76605 -1.000159 -4.4249177 2.7493918 1.4885186 1.931436 1.3616421 -4.4942074
1.8269382 -5.648701 0.1420159 -0.37959006 6.0101795 1.8085474 1.3990778 2.0350254
5.709799 3.1940749 -3.386303 -1.1934713 -3.4574902 -6.1794314 1.48405 -1.4829636
-3.187771 -0.13346021 -0.45491877 -3.2485197 1.2190561 -2.9519367 -0.30704823 0.9975753
-0.847304 0.8308242 0.84337395 0.05274251 -1.7451339 -2.0943124 0.20786647 1.4217522
-0.12615879 -1.0721117 -0.98539746 0.37067443 0.1931643 0.8134607 3.7773335 1.4198647
-0.61315477 -2.6668403 -1.3047894 0.25586754 -1.3935223 0.2992288 0.794464 -0.97778165
2.6941006 1.3740335 -5.216607 -1.3185588 -0.5123505 -2.5195405 0.6246264 3.3755927
0.42784086 -2.3120205 3.619168 -0.31852707 3.87691 -0.7124238 -2.5776255 -0.13168517
-3.1701465 -0.9204617 0.4611041 0.041053455 0.9022999 0.15303165 -0.7627705 -0.11247114
0.23596846 2.3385768 -5.96065 -2.1762655 -0.7870371 3.5328 -0.025374433 -0.27565792
00000000: 8a37 59bf 13b2 95bf 875e e7bf 8173 b140
00000010: d424 69bf 3867 a0c0 72b4 66bf 6e81 cd3e
00000020: 5f06 33be 6819 9240 f12d a740 dbef bc40
00000030: 5625 33bf 5945 a040 e12a f8bf 8ae1 ff40
00000040: 809c 6ebd 1f1f c9c0 0aa4 0abf c6ec ccc0
00000050: 7ac4 dc40 707a afbf 2647 6340 60a0 a7c0
00000060: 89dc 3dc1 aae9 a4c0 9073 90be b007 33c0
00000070: 3fdd 31bf b762 e03f b652 c73f 84dd acc0
00000080: c203 b440 954f 86bf 86bb 0740 6cb5 1a40
00000090: 6564 bbc0 0841 0e41 8848 7940 dc9c f8bf
000000a0: b036 1140 2c62 7ebf 12aa 28c0 a89b fa3f
000000b0: 5a11 5a40 f858 5f3e 0d88 efc0 9383 05bf
000000c0: 05c3 6f40 1dbf b4c0 1d54 a7bf f1de b03f
000000d0: 8da6 6fc0 ed73 ad3f 0826 8340 7317 ee40
000000e0: 02ce 8f3f c656 a63e ebfc 963e 887f 9dc0
000000f0: 4c9d f1bf 5ac3 81c0 7aa8 543f 2a26 9cbf
00000100: 4fae 303f 6708 f33f 9620 64be 3f54 50bf
00000110: bf09 64bf a1dc cd3f 8722 35bf d431 0040
00000120: 2fb7 44bf 1d64 093f cf84 8b3f 16a5 0340
00000130: 6213 1040 3231 593e ee11 6a40 ac56 debf
00000140: b457 3c3f 0c78 31c0 5f49 de3e ab65 50bf
00000150: df74 4540 f7a6 b03f 8760 36bf 71ff 813f
00000160: 5863 72bf 80b4 ed3f d46c b8be fdfd 2d40
00000170: 4f49 abbd adc5 c03f 62b5 82be 8a1e d8bf
00000180: b736 abbf c528 dfbf 94d3 8a3d 7969 84bf
00000190: 15bb 66bf e577 6bc0 c553 1640 a0f9 1e3f
000001a0: 5688 e63d d979 6d3f ecac 7fc0 18fb e4c0
000001b0: b25e 08c0 7745 4340 eef8 8f40 c5fc 22bc
000001c0: 1db9 8840 8ac7 dfbe 0673 a83f cf1a 6940
000001d0: 5cd9 aebf 5835 89bd 9dec 0bbe efa8 20c0
000001e0: 84b2 4e3f 0220 b33e 6dda e6c0 6dfd 3cc0
000001f0: 80c8 05c0 fac3 85bd 4fdd b1bf 23e2 c9be
00000200: 7633 80bf a7ae 6bbe e247 f640 be87 0b3e
00000210: 40b7 3240 5f27 45c0 18c1 1c3d e717 c7bf
00000220: 7936 3540 6598 25c0 0609 94c0 4eaf cfbf
00000230: 9064 fbbe 3b1c b5c0 5f65 6bbf aa6d bf3f
00000240: 8461 8c3f 5e6c 9bbf 3063 46c0 dd56 b2bf
00000250: 6696 11c0 461d dd3f 6b94 dc3f 918d a7bf
00000260: afa3 91bf f1d8 1cc0 7617 85c0 2f43 b1be
00000270: 5a79 cebf d9f7 803f c45f 80c0 474a 1f3f
00000280: 06c3 e43e 3b82 8940 9842 dcbf 84a4 dabf
00000290: 0630 b3c0 e8e1 cd3e ac70 f4be 2658 5ec0
000002a0: f706 71c0 3605 80bf ed98 8dc0 09f6 2f40
000002b0: c787 be3f 4b39 f73f 4a4a ae3f 8cd0 8fc0
000002c0: 1cd9 e93f 29c2 b4c0 9e6c 113e a159 c2be
000002d0: 6453 c040 7b7e e73f fb14 b33f db3d 0240
000002e0: acb6 b640 b96b 4c40 30b9 58c0 abc3 98bf
000002f0: 8547 5dc0 e7bd c5c0 5af5 bd3f c0d1 bdbf
00000300: 7104 4cc0 cba9 08be 1deb e8be bfe7 4fc0
00000310: 080a 9c3f 88ec 3cc0 6d35 9dbe 1861 7f3f
00000320: eae8 58bf e5b0 543f 5be7 573f 8808 583d
00000330: 8c60 dfbf 3709 06c0 f3da 543e fafb b53f
00000340: c52f 01be f53a 89bf 0243 7cbf 0ac9 bd3e
00000350: ddcc 453e f63e 503f d5bf 7140 20be b53f
00000360: b6f7 1cbf 83ad 2ac0 5703 a7bf 1201 833e
00000370: f05e b2bf 8434 993e fe61 4b3f e64f 7abf
00000380: 256c 2c40 54e0 af3f 72ee a6c0 89c6 a8bf
00000390: 6729 03bf 2740 21c0 84e7 1f3f b609 5840
000003a0: f50d db3e 25f8 13c0 73a0 6740 fb15 a3be
000003b0: 4b1f 7840 6861 36bf d1f7 24c0 7ad8 06be
000003c0: aee3 4ac0 61a3 6bbf d615 ec3e ab27 283d
000003d0: 20fd 663f 54b4 1c3e ed44 43bf 4557 e6bd
000003e0: b7a1 713e 3eab 1540 a5bd bec0 ef47 0bc0
000003f0: 437b 49bf 6519 6240 0bde cfbc 0923 8dbe

onnx::LSTM_525 f4 [2, 256]
-1.0673295 -0.29611754 -0.6324877 -0.4463765 -0.8635023 -1.0446833 -0.7818466 -0.69911134
-0.41713718 -0.9193527 -0.47660646 -0.60268253 -0.8392611 -1.0775762 -0.7024686 -0.73261434
-0.70628995 -1.0045049 -0.54921013 -0.49218988 -0.6929795 -0.7367213 -0.51818657 -0.29031312
-0.5760603 -0.96799505 0.14789459 -0.7306708 -0.67040354 -1.0973775 -1.0483916 -0.32624358
-1.4120178 -0.73022413 -0.65079063 -0.21083316 -0.27885476 -0.020231172 -0.5084633 -1.0307112
-0.594851 -0.18856312 -0.5256399 -0.561109 -0.18724541 -0.0049953293 -0.32891533 -0.030046502
-0.054868624 -0.48205495 -0.12731075 -0.42569354 -0.84290236 -0.083191074 -1.072117 -0.81162494
-0.52428144 -0.27934355 -0.42165732 -0.80202603 -0.7305461 0.15302493 -0.64876384 -0.09895368
-1.2107176 -0.09421964 -0.7139594 -0.71386653 -0.11167674 0.5814946 -0.21008462 -0.23616305
0.14842224 0.32318744 -0.19025123 0.30730858 0.34170547 -0.10175345 0.070213586 0.054446414
-0.16767046 0.22437382 0.7837492 -0.082473814 -0.11448284 -0.33199936 -0.17690113 -0.2204191
0.5168063 0.15052067 -0.17349179 -0.30985343 -0.26227048 0.5450859 -0.15841334 -0.7410985
0.24269173 0.29013836 -0.3688671 0.10360141 0.6344165 -0.053000856 -0.3143674 -0.29122648
-0.046389874 0.05130364 -0.10408756 0.01305506 -0.29112637 -0.4063456 -0.05874969 -0.36943835
-0.008905895 0.473959 -0.03724191 -0.25288045 0.09958874 -0.53188777 -0.340582 0.21205951
-0.5155902 0.3016808 -0.05457541 -0.037989575 0.54745483 0.061395116 -0.011937502 -0.2373453
-0.9512568 -0.38075277 -0.7529705 -0.745506 -0.5964585 -0.8204704 -0.77376926 -0.52305436
-0.10809598 -0.8782027 -0.489043 -0.33357385 -0.8225868 -1.0294669 -0.70179045 -1.0061885
-0.47930056 -0.9725802 -0.32796344 -0.5851611 -0.6501089 -0.90812194 -0.74171174 -0.13198529
-0.5042068 -1.1191841 0.1843893 -0.74497443 -0.64343196 -1.2344444 -1.0747563 -0.4203485
-1.2381892 -0.9035744 -0.89940923 -0.088750556 -0.500457 -0.054298643 -0.62141293 -1.0671358
-0.470648 -0.10824539 -0.4966557 -0.33119863 -0.20975886 -0.12006673 -0.11089052 0.005462147
-0.012948154 -0.47536126 -0.12407585 -0.42129606 -0.7687371 -0.39538097 -1.0701915 -0.64635074
-0.59952796 -0.36832723 -0.46760187 -0.91633666 -0.5859108 0.33414048 -0.6537253 0.023026364
-1.051411 -0.095483385 -0.7468505 -0.7745282 -0.0876078 0.87938756 -0.10169605 -0.29275662
0.26438254 0.29752606 -0.05569566 0.4633295 0.36217383 0.056596782 0.118631504 0.2504846
-0.05458586 0.30989477 0.7504918 -0.20113716 -0.05163684 -0.41406804 -0.0674511 -0.25668898
0.49886644 0.49837515 -0.076371044 -0.55451286 -0.45197606 0.32579902 -0.15265876 -0.61839867
0.123448975 0.07162477 -0.5111504 0.07886862 0.64665455 -0.053477027 -0.3116156 -0.13020015
-0.13848107 0.118091136 -0.016932625 -0.024981588 -0.4403658 -0.30830333 -0.05384973 -0.23775451
0.13212176 0.4670154 -0.124400415 -0.16350898 -0.031978797 -0.7027197 -0.17255469 0.07951364
-0.69053584 0.3158565 -0.11313323 -0.07160388 0.35194656 -0.16648388 0.21117398 -0.08046769
00000000: 419e 88bf b89c 97be b7ea 21bf 768b e4be
00000010: 7d0e 5dbf 2fb8 85bf 1927 48bf f6f8 32bf
00000020: 0193 d5be b35a 6bbf c305 f4be 6749 1abf
00000030: d1d9 56bf 04ee 89bf fbd4 33bf 9d8c 3bbf
00000040: 6bcf 34bf 9e93 80bf 0999 0cbf 5000 fcbe
00000050: 1b67 31bf c499 3cbf e0a7 04bf eca3 94be
00000060: b078 13bf 86ce 77bf ae71 173e 3e0d 3bbf
00000070: 919f 2bbf de76 8cbf b231 86bf 6609 a7be
00000080: 00bd b4bf f8ef 3abf 379a 26bf a6e4 57be
00000090: 0dc6 8ebe d8bb a5bc a72a 02bf 58ee 83bf
000000a0: 2848 18bf b116 41be 5690 06bf d7a4 0fbf
000000b0: 43bd 3fbe dcaf a3bb 9767 a8be 1524 f6bc
000000c0: ecbd 60bd e8cf f6be c05d 02be 81f4 d9be
000000d0: 73c8 57bf 1560 aabd 213b 89bf a7c6 4fbf
000000e0: 4f37 06bf 1e06 8fbe 78e3 d7be 9451 4dbf
000000f0: 1205 3bbf 91b2 1c3e 6315 26bf 3aa8 cabd
00000100: cbf8 9abf 3af6 c0bd 0bc6 36bf f5bf 36bf
00000110: c6b6 e4bd d5dc 143f 6c20 57be bad4 71be
00000120: 00fc 173e d378 a53e 38d1 42be 8d57 9d3e
00000130: 05f4 ae3e 1d64 d0bd 24cc 8f3d 3403 5f3d
00000140: ceb1 2bbe 40c2 653e caa3 483f 08e8 a8bd
00000150: fb75 eabd d2fb a9be 9225 35be 8bb5 61be
00000160: 6b4d 043f 1722 1a3e d5a7 31be 1ca5 9ebe
00000170: 5148 86be c08a 0b3f 1b37 22be a2b8 3dbf
00000180: 2e84 783e 048d 943e 26dc bcbe fa2c d43d
00000190: 1f69 223f 6d17 59bd c4f4 a0be a31b 95be
000001a0: 4f03 3ebd c423 523d dc2b d5bd e4e4 553c
000001b0: 840e 95be 880c d0be 84a3 70bd 0627 bdbe
000001c0: 08ea 11bc c1aa f23e f98a 18bd 8c79 81be
000001d0: 2ef5 cb3d cc29 08bf c460 aebe 2126 593e
000001e0: b8fd 03bf e875 9a3e 778a 5fbd f59a 1bbd
000001f0: 0026 0c3f 7279 7b3d 8395 43bc a50a 73be
00000200: 9185 73bf 07f2 c2be adc2 40bf 7bd9 3ebf
00000210: 81b1 18bf 590a 52bf be15 46bf e4e6 05bf
00000220: 6d61 ddbd e4d1 60bf d863 fabe 31ca aabe
00000230: 0c95 52bf 92c5 83bf 8aa8 33bf c9ca 80bf
00000240: e266 f5be 04fb 78bf d3ea a7be 1ecd 15bf
00000250: 896d 26bf ae7a 68bf d2e0 3dbf 2727 07be
00000260: b213 01bf 6d41 8fbf 8cd0 3c3e a5b6 3ebf
00000270: f5b7 24bf 4602 9ebf 9d91 89bf eb37 d7be
00000280: fc7c 9ebf a750 67bf af3f 66bf dac2 b5bd
00000290: f31d 00bf 4168 5ebd eb14 1fbf e897 88bf
000002a0: c6f8 f0be c2af ddbd a849 febe de92 a9be
000002b0: 07cb 56be 8ce5 f5bd 921a e3bd cffb b23b
000002c0: 7e24 54bc 8d62 f3be 7b1b febd 1eb4 d7be
000002d0: f4cb 44bf 606f cabe 09fc 88bf 3e77 25bf
000002e0: aa7a 19bf 6395 bcbe 8369 efbe 0a95 6abf
000002f0: 40fe 15bf 7614 ab3e 8b5a 27bf c9a1 bc3c
00000300: a394 86bf cb8c c3bd 9831 3fbf 7b47 46bf
00000310: b86b b3bd 8b1f 613f 0546 d0bd 32e4 95be
00000320: 265d 873e 5655 983e 2221 64bd 8639 ed3e
00000330: d96e b93e 07d2 673d 13f5 f23d 843f 803e
00000340: 6c95 5fbd 87aa 9e3e 3b20 403f e6f6 4dbe
00000350: 2781 53bd ba00 d4be cd23 8abd bd6c 83be
00000360: 6c6b ff3e 072b ff3e 6c68 9cbd 8ef4 0dbf
00000370: 6869 e7be 21cf a63e 9452 1cbe 604f 1ebf
00000380: d1d2 fc3d 02b0 923d c1da 02bf df85 a13d
00000390: 278b 253f ba0a 5bbd 148c 9fbe 3053 05be
000003a0: fbcd 0dbe c4d9 f13d 4ab6 8abc 30a6 ccbc
000003b0: a077 e1be efd9 9dbe 8991 5cbd eb75 73be
000003c0: ed4a 073e a41c ef3e a5c5 febd e66e 27be
000003d0: 33fc 02bd 70e5 33bf 2db2 30be 0cd8 a23d
000003e0: f5c6 30bf f1b7 a13e 65b2 e7bd 0ea5 92bd
000003f0: 5732 b43e c07a 2abe fe3d 583e 3fcc a4bd

onnx::LSTM_526 f4 [2, 128, 64]
3.7583485 -0.08590224 -0.64734757 0.029959923 2.512306 -0.45863932 -0.46192363 -1.2489154
-1.4662443 1.5594871 1.8338617 3.3306072 4.245381 -1.0526758 5.479904 -3.1873798
2.1938572 -0.69997257 2.162458 2.4978347 -2.347262 1.1519499 2.316138 -2.510269
0.6913815 -0.9400637 -1.0620564 2.9282248 -3.3996074 -1.4158887 -1.9985297 -2.2949264
-5.233263 -3.9159038 -6.2547812 1.5177326 -1.5049099 -7.380158 3.605192 -3.6042166
-3.4633527 -4.2860284 -2.8276153 5.4314857 -0.31738406 5.209039 -0.25170594 2.1976202
-2.411132 -2.900704 7.7567625 0.36438772 -0.9436366 -5.495564 -1.4539406 -1.6155785
-0.5726664 1.0557984 -0.03190832 0.2009507 -2.6561923 0.43193644 -3.9576015 -1.6039174
-0.6409632 -0.5238589 -0.1842916 4.899662 -0.33236924 -5.2529926 1.416244 1.5207318
2.3403316 -0.24787147 -0.2445817 1.5455631 -2.1598296 -0.77518284 -2.8518684 0.06591863
-2.6163452 -0.29055324 -0.8267652 -3.568128 3.284232 0.6410049 -1.5294431 -1.0106668
1.0892497 -2.255995 1.1559583 0.7030789 -1.7569332 -0.6625482 0.98507017 -1.1684797
1.2193477 -0.16616566 6.1181464 -0.68530273 1.4598951 -1.9471997 -2.964357 1.313637
3.3325906 -2.5088298 -1.8406483 -0.5229303 -1.9354722 1.8059926 -3.0927677 0.4896501
-2.5476449 1.557723 -1.8635118 -0.11360646 -1.092424 6.9312005 0.7986505 -0.6825902
-3.2589436 -3.7591321 -0.83053625 -1.1220064 -2.8810606 1.4043387 2.6391606 0.06291483
1.6321398 -1.1352353 -0.45260727 -0.81150573 5.1004376 -0.8844837 1.547192 -1.4880313
-0.16407725 1.9320633 -1.3186598 2.0476894 -0.4302807 0.24815927 1.9823222 1.9687687
-1.1483626 1.0450919 -0.9140323 -0.16590561 -0.5347462 -0.19383107 -0.77651906 0.66005343
-0.71814054 1.4509158 0.668978 1.6450462 -0.20358005 -1.4243852 -1.9860017 1.252991
-0.2961922 -6.25931 -0.947657 1.9746959 3.0400727 -4.0206094 -2.0807834 -3.318948
1.9222158 -0.24430284 1.0128753 -2.5410545 0.95540214 1.2541065 -0.4350646 -1.5272127
0.52338284 0.97889477 -3.1757243 -0.029881313 1.3615627 -0.006362955 1.7891555 -1.6656641
1.341093 -3.2974017 0.22792406 -0.0025907448 -0.27261317 -0.79684293 -2.4426248 -1.3548098
1.4888843 3.328596 -0.5498138 0.53594244 -0.81684047 3.002018 -1.4057399 1.4430798
-0.15655807 0.23687553 1.1392963 -2.4274185 -3.236875 -1.4372859 -2.769597 0.4857824
0.44473428 0.98764694 1.1388553 -3.1640754 2.3136618 0.015629437 0.69117373 1.8282574
-3.1082227 -2.8766122 2.0772972 -1.5962865 -0.12685704 -0.5468702 1.2067758 -3.0713453
-0.5524208 -0.44252327 4.0865436 2.490582 -4.8314304 8.095667 -1.1373659 -2.219463
-0.387748 0.62654066 -0.9540643 5.1618843 -0.18534169 2.3887167 0.15954962 2.3034337
-1.978915 -1.0182679 -0.51168805 2.6722262 -2.0191953 7.3636312 -0.7006102 -9.632414
-0.7053964 2.683351 4.3017693 -0.35964426 -7.632714 -7.6771803 -1.321566 6.973141
00000000: c888 7040 83ed afbd 92b8 25bf 836e f53c
00000010: 9fc9 2040 c6d2 eabe 4181 ecbe 76dc 9fbf
00000020: e5ad bbbf 469d c73f fbbb ea3f ab28 5540
00000030: 29da 8740 15be 86bf 605b af40 08fe 4bc0
00000040: 2868 0c40 6731 33bf b665 0a40 86dc 1f40
00000050: 8a39 16c0 1873 933f 9b3b 1440 3fa8 20c0
00000060: 61fe 303f 04a8 70bf 77f1 87bf 0968 3b40
00000070: 2b93 59c0 d73b b5bf d2cf ffbf 13e0 12c0
00000080: e476 a7c0 2b9e 7ac0 2b27 c8c0 1045 c23f
00000090: e3a0 c0bf 412a ecc0 77bb 6640 7cab 66c0
000000a0: 92a7 5dc0 2527 89c0 a6f7 34c0 bbce ad40
000000b0: 2a80 a2be 73b0 a640 9adf 80be cfa5 0c40
000000c0: fd4f 1ac0 22a5 39c0 6637 f840 0791 ba3e
000000d0: 2b92 71bf a9db afc0 ba1a babf 47cb cebf
000000e0: 449a 12bf 6724 873f 4cb2 02bd 05c6 4d3e
000000f0: 0eff 29c0 c626 dd3e 5849 7dc0 2a4d cdbf
00000100: 2a16 24bf 9e1b 06bf f0b6 3cbe 08ca 9c40
00000110: 4d2c aabe 8418 a8c0 7c47 b53f 57a7 c23f
00000120: fec7 1540 05d2 7dbe a073 7abe 03d5 c53f
00000130: a63a 0ac0 6272 46bf 0385 36c0 5900 873d
00000140: 3372 27c0 65c3 94be e2a6 53bf 365c 64c0
00000150: db30 5240 e618 243f cbc4 c3bf 885d 81bf
00000160: 896c 8b3f 3962 10c0 71f6 933f fbfc 333f
00000170: 30e3 e0bf c29c 29bf 8f2d 7c3f be90 95bf
00000180: 9613 9c3f 5527 2abe dbc7 c340 0070 2fbf
00000190: d8dd ba3f d73d f9bf 06b8 3dc0 4225 a83f
000001a0: 2a49 5540 ab90 20c0 5d9a ebbf c3de 05bf
000001b0: 8ebd f7bf c42a e73f e8ef 45c0 6bb3 fa3e
000001c0: 9d0c 23c0 7863 c73f 8e87 eebf 81aa e8bd
000001d0: 8dd4 8bbf 65cc dd40 5c74 4c3f 3bbe 2ebf
000001e0: 8892 50c0 9f95 70c0 069e 54bf e89d 8fbf
000001f0: 4c63 38c0 5fc1 b33f 02e8 2840 7ed9 803d
00000200: f5e9 d03f 644f 91bf 24bc e7be d7be 4fbf
00000210: c936 a340 866d 62bf 630a c63f cf77 bebf
00000220: de03 28be da4d f73f d8c9 a8bf 580d 0340
00000230: c04d dcbe 771d 7e3e bcbc fd3f 9d00 fc3f
00000240: 8cfd 92bf 92c5 853f 05fe 69bf 29e3 29be
00000250: 21e5 08bf a77b 46be f4c9 46bf 43f9 283f
00000260: 0fd8 37bf 9cb7 b93f 2442 2b3f e090 d23f
00000270: 4a77 50be 4152 b6bf 4e35 febf 0262 a03f
00000280: 81a6 97be 444c c8c0 a699 72bf d6c2 fc3f
00000290: 8d90 4240 d5a8 80c0 8e2b 05c0 a569 54c0
000002a0: 2b0b f63f 862a 7abe e6a5 813f a3a0 22c0
000002b0: 3c95 743f 9086 a03f cac0 debe b57b c3bf
000002c0: 6bfc 053f d998 7a3f 113f 4bc0 a8c9 f4bc
000002d0: b047 ae3f 5680 d0bb 0c03 e53f 7b34 d5bf
000002e0: efa8 ab3f a108 53c0 ed64 693e 7cc9 29bb
000002f0: f493 8bbe e6fd 4bbf f753 1cc0 686a adbf
00000300: c393 be3f b807 5540 99c0 0cbf 8633 093f
00000310: 751c 51bf 1021 4040 49ef b3bf d7b6 b83f
00000320: c250 20be 808f 723e 76d4 913f d35a 1bc0
00000330: f628 4fc0 fcf8 b7bf 1441 31c0 79b8 f83e
00000340: 36b4 e33e 6ed6 7c3f 03c6 913f 3680 4ac0
00000350: 0913 1440 4e09 803c c3f0 303f 5704 ea3f
00000360: 1fed 46c0 6a1a 38c0 70f2 0440 1e53 ccbf
00000370: d0e6 01be afff 0bbf a177 9a3f ec90 44c0
00000380: 736b 0dbf 6992 e2be f7c4 8240 b265 1f40
00000390: 149b 9ac0 da87 0141 3595 91bf af0b 0ec0
000003a0: e886 c6be f864 203f 8f3d 74bf 282e a540
000003b0: 36ca 3dbe bce0 1840 fa60 233e 756b 1340
000003c0: 164d fdbf 9a56 82bf fdfd 02bf c105 2b40
000003d0: 7f3a 01c0 dea2 eb40 315b 33bf 5e1e 1ac1
000003e0: dc94 34bf 06bc 2b40 18a8 8940 4b23 b8be
000003f0: 313f f4c0 76ab f5c0 1329 a9bf f923 df40

onnx::LSTM_527 f4 [2, 128, 32]
2.9417555 0.38597208 4.237945 -1.1063335 0.620156 1.7688037 -3.4466825 0.042951174
-1.2861844 3.645597 -0.60404414 -0.56477135 0.39108476 1.5721159 3.2260468 5.059453
-1.1031654 4.3149505 -0.50902635 1.2153854 1.802405 2.6319356 -1.9223741 -0.74280787
0.9062145 -7.4290714 -1.1469839 -0.044816412 -4.6134896 1.7061378 0.4514997 2.0426023
7.496004 0.6140675 -0.04959557 -4.6487164 0.9860202 2.2188473 -1.2938827 0.56715053
-0.15283456 -0.65918684 0.812835 -0.9698989 1.3607619 0.3793186 2.810546 1.9043342
-1.7942965 1.3842393 1.0336275 -2.9030178 0.27979302 -3.3293366 -2.5218844 1.4293729
4.207238 -4.26125 -0.1874393 -1.8570225 -0.54940057 0.6525533 -1.4348544 0.1852352
1.1612118 1.3548795 -0.5389185 1.0692042 -2.3870633 1.4310505 -2.8340025 1.6611253
-1.2242682 2.336329 0.089724265 0.7231738 0.11214857 0.51029533 0.30836934 0.30917794
1.7351087 -1.0616618 -0.50550807 1.2048112 -0.27335116 0.26398027 -0.28895766 0.9969001
0.33077505 -1.8665457 -0.85560495 -0.8501058 -2.05395 -0.03876243 0.9049204 0.34829247
-4.6946282 -3.5777817 -1.392062 0.8108737 -4.2112603 -5.1283035 -2.6666589 0.4805714
-1.7927336 -0.8684967 -4.0546865 1.1355543 -1.169868 1.0118293 -0.27287033 0.6486686
1.5543704 2.7786026 1.4237779 -3.1392488 1.3865803 -0.69991165 5.0879416 2.4468393
-0.7986985 -0.3099085 -0.069265954 -1.5042683 2.6915457 0.4990089 -3.2143638 -3.3845189
0.85407597 -0.28599396 -0.2095075 0.7154723 -0.8216322 1.6466948 -4.018154 -6.7907457
2.22121 -0.6275546 -2.797753 -0.40374964 6.249504 1.186515 -3.4661014 2.2209032
-3.5917242 0.60697204 -0.5284423 -1.0819354 -0.70527565 -0.32935917 4.402107 -1.7972561
-2.1669054 -1.5087031 -0.5038858 -2.5154047 1.096383 0.5029491 -1.1863035 -3.0453527
-0.055726346 -1.507011 -0.39908588 -0.6489215 -1.385077 2.306671 -0.26128227 -0.71373576
-0.32320502 0.11837775 0.78961337 -0.44916946 -0.7271874 -0.01729976 -0.90125567 0.4122088
-0.93609434 0.66537905 -1.0654298 0.22818524 -0.7932425 0.3634216 0.11861101 1.1003604
-0.22666214 -2.1145415 0.24399714 -0.09096594 -0.14443438 -0.23386374 0.36293018 0.6963974
-0.3751115 0.9067955 -1.3274856 -0.3690302 -0.48946851 1.7680236 0.2905749 -1.1615471
0.20679674 0.090297036 -1.4722494 -1.0504287 -0.28863975 0.14472604 -3.48176 3.0349014
1.6866709 -2.9073331 -0.16777386 -1.7268059 1.317119 0.48384294 1.4826527 -0.017886432
0.55736095 -0.35006812 0.949337 0.8512381 -0.8525386 -0.34808195 0.24642953 1.5386903
0.9107764 0.5345065 -0.70331097 -0.38255635 0.71506494 -0.8217676 -0.32927835 -0.90938795
0.54883295 0.83941525 -1.8771867 0.6987467 -0.13864677 0.46303684 -0.57157224 -0.22521931
0.23308411 0.17779994 -0.59266967 0.747171 -0.12331585 1.3031664 -0.21597555 0.46478027
0.37871262 1.7718067 0.16951385 1.2641764 -0.43795735 0.29221484 1.009302 0.6776821
00000000: b945 3c40 229e c53e 3f9d 8740 569c 8dbf
00000010: 8bc2 1e3f 2968 e23f 7296 5cc0 92ed 2f3d
00000020: b1a1 a4bf 7651 6940 a3a2 1abf db94 10bf
00000030: 433c c83e 183b c93f 8d77 4e40 0ae7 a140
00000040: 8634 8dbf 1314 8a40 8d4f 02bf c091 9b3f
00000050: 35b5 e63f a271 2840 5b10 f6bf a828 3ebf
00000060: acfd 673f f4ba edc0 5ed0 92bf 6a91 37bd
00000070: b5a1 93c0 b962 da3f f82a e73e ffb9 0240
00000080: 44df ef40 8733 1d3f b924 4bbd 49c2 94c0
00000090: d26b 7c3f 9801 0e40 f39d a5bf c730 113f
000000a0: aa80 1cbe 78c0 28bf f415 503f 4b4b 78bf
000000b0: 722d ae3f 0c36 c23e fcdf 3340 39c1 f33f
000000c0: 82ab e5bf c12e b13f e84d 843f 0bcb 39c0
000000d0: 0841 8f3e da13 55c0 8e66 21c0 b1f5 b63f
000000e0: b2a1 8640 295c 88c0 16f0 3fbe eab2 edbf
000000f0: 84a5 0cbf bc0d 273f 4fa9 b7bf 4cae 3d3e
00000100: 97a2 943f b16c ad3f 90f6 09bf afdb 883f
00000110: a5c5 18c0 aa2c b73f 4c60 35c0 c19f d43f
00000120: d2b4 9cbf 6a86 1540 5bc1 b73d eb21 393f
00000130: 26ae e53d b7a2 023f 96e2 9d3e 924c 9e3e
00000140: 0b18 de3f 89e4 87bf fa68 01bf 4137 9a3f
00000150: aff4 8bbe 6c28 873e 42f2 93be d834 7f3f
00000160: 595b a93e f8ea eebf ed08 5bbf 89a0 59bf
00000170: eb73 03c0 5bc5 1ebd dda8 673f 6453 b23e
00000180: 653a 96c0 60fa 64c0 162f b2bf 6b95 4f3f
00000190: a5c2 86c0 101b a4c0 8aaa 2ac0 740d f63e
000001a0: 4b78 e5bf cd55 5ebf febf 81c0 d859 913f
000001b0: 3cbe 95bf 9f83 813f a9b5 8bbe 250f 263f
000001c0: 9cf5 c63f a0d4 3140 5b3e b63f 74e9 48c0
000001d0: 777b b13f 692d 33bf 6bd0 a240 0499 1c40
000001e0: 8177 4cbf 54ac 9ebe 4fdb 8dbd dd8b c0bf
000001f0: 4942 2c40 187e ff3e 23b8 4dc0 f59b 58c0
00000200: b9a4 5a3f cd6d 92be 2289 56be 3129 373f
00000210: 7d56 52bf e5c6 d23f b894 80c0 ca4d d9c0
00000220: 4e28 0e40 6ba7 20bf 630e 33c0 46b8 cebe
00000230: f0fb c740 b9df 973f 9bd4 5dc0 4723 0e40
00000240: cfde 65c0 8562 1b3f ff47 07bf dc7c 8abf
00000250: f28c 34bf c4a1 a8be 0fde 8c40 7d0c e6bf
00000260: 94ae 0ac0 2f1d c1bf a9fe 00bf 64fc 20c0
00000270: 4756 8c3f 46c1 003f cbd8 97bf 0fe7 42c0
00000280: 4f41 64bd bde5 c0bf fc54 ccbe b81f 26bf
00000290: 344a b1bf 7fa0 1340 cac6 85be 63b7 36bf
000002a0: 217b a5be 0970 f23d 1a24 4a3f 8af9 e5be
000002b0: f428 3abf 3ab8 8dbc b1b8 66bf 080d d33e
000002c0: e1a3 6fbf 4856 2a3f 0160 88bf 64a9 693e
000002d0: f111 4bbf 6512 ba3e 54ea f23d 9cd8 8c3f
000002e0: 1f1a 68be a654 07c0 63da 793e 5a4c babd
000002f0: 9be6 13be fa79 6fbe fcd1 b93e 1a47 323f
00000300: 9d0e c0be c023 683f 0ceb a9bf 87f1 bcbe
00000310: 9e9b fabe 994e e23f 3cc6 943e 93ad 94bf
00000320: 86c2 533e a7ed b83d ab72 bcbf 7374 86bf
00000330: 97c8 93be 1033 143e 28d5 5ec0 d33b 4240
00000340: d5e4 d73f bf11 3ac0 e9cc 2bbe fa07 ddbf
00000350: 5b97 a83f 43ba f73e 90c7 bd3f 9186 92bc
00000360: 35af 0e3f 213c b3be c007 733f bdea 593f
00000370: f83f 5abf cc37 b2be 0658 7c3e cef3 c43f
00000380: a428 693f 6bd5 083f 300c 34bf 6dde c3be
00000390: 7f0e 373f 5d5f 52bf 2c97 a8be a6cd 68bf
000003a0: 5180 0c3f ebe3 563f a747 f0bf 10e1 323f
000003b0: 6bf9 0dbe 2a13 ed3e 8f52 12bf e49f 66be
000003c0: 9aad 6e3e 3011 363e 33b9 17bf 9946 3f3f
000003d0: 058d fcbd 28ce a63f b228 5dbe aef7 ed3e
000003e0: 9fe6 c13e 90ca e23f 0a95 2d3e 88d0 a13f
000003f0: f23b e0be 2f9d 953e cf30 813f 937c 2d3f

onnx::LSTM_568 f4 [2, 256]
-2.707255 -2.642624 -1.9569387 -2.071383 -3.0969992 -2.5725062 -2.9286852 -2.711935
-3.8914483 -2.436526 -2.8077826 -2.7687466 -2.9066195 -2.871176 -2.9707203 -2.7041445
-3.1091921 -3.2817764 -2.1394734 -2.764735 -3.1269429 -2.6437027 -3.3327012 -2.6211026
-3.2338233 -2.363822 -2.8949142 -2.8692937 -2.780761 -2.7349043 -1.6570855 -2.4161
-2.738109 -2.6025863 -3.7055042 -2.9284534 -2.827682 -2.7426903 -2.8467815 -2.7868207
-3.6222224 -2.5731792 -2.9401886 -2.6135845 -2.7540762 -2.8817425 -2.8929408 -2.4633484
-2.662689 -2.9120824 -2.310602 -2.7048187 -3.2596145 -2.4028401 -3.1069698 -2.4786844
-3.1113055 -2.1435711 -2.77454 -2.915736 -2.7016006 -2.815954 -3.315339 -2.033314
-5.8724337 -0.69450676 -0.6255823 -0.44005072 -0.5041345 0.11232879 -1.9663726 -1.1368552
-1.0352743 -0.8036381 -0.92315125 -1.1412268 -0.10284388 -0.25242272 -0.074061416 -1.8386974
-0.052297816 -0.6742113 -2.6670585 0.20666683 -1.2790272 -1.1444142 -0.277324 -0.46998912
-1.0237823 -1.1366163 -2.019413 0.033231266 -0.5496922 -0.15445498 -0.38408828 -1.3399296
0.28778833 0.21989498 -0.43405205 0.038747635 0.052796464 -0.09090232 0.19996415 0.15476854
0.049549233 0.19021301 0.064340755 -0.106022224 -0.18756527 -0.18662539 -0.8193502 -0.3562827
0.055686332 -0.2632923 0.027997771 0.2821861 -0.6229847 0.23843354 -0.16774344 -0.41200203
-0.18059015 0.014613152 -0.120877 0.18152878 -0.14818159 0.31191683 0.16980974 -0.4440828
-2.720247 -2.6290188 -2.1604764 -2.0403867 -2.974336 -2.6535668 -2.8027937 -2.7492423
-3.6035855 -2.4483223 -2.7713315 -2.6810527 -2.8034205 -2.8174756 -2.7977483 -2.693206
-2.9896426 -3.3128374 -2.1150131 -2.739245 -3.0704699 -2.4934683 -3.4782856 -2.6002126
-3.1325524 -2.335641 -3.1646988 -2.7629962 -2.5289476 -2.6236212 -1.6089625 -2.4037879
-2.8756225 -2.421509 -3.6439977 -2.9205818 -2.6580591 -2.5751643 -2.8817654 -2.7361398
-3.454362 -2.6642075 -3.0536056 -2.5580792 -2.936195 -2.7720082 -2.6517153 -2.639808
-2.549072 -2.935737 -2.4121354 -2.7025554 -3.2494957 -2.5968828 -3.3698444 -2.7285824
-2.934207 -2.183365 -2.9104414 -2.7785408 -2.678348 -2.8117127 -3.172456 -2.0796623
-5.856578 -0.8255004 -0.58699495 -0.47475648 -0.46194082 -0.16404432 -2.212486 -1.1285396
-1.0574052 -0.79415196 -0.77564424 -1.2901213 -0.13924398 -0.044116944 -0.16581045 -1.5502362
0.077367574 -0.57374686 -2.6657605 0.30641103 -1.2896922 -1.3775598 -0.19352949 -0.5543924
-1.1331266 -1.0496114 -2.0935953 -0.12292985 -0.4228581 -0.06829755 -0.32443684 -1.0619369
0.22442523 0.13656066 -0.15259866 -0.02515726 0.106664374 -0.18113257 0.43976894 0.35729802
-0.14811073 0.23350707 -0.1397895 0.057605624 -0.22087693 -0.42044148 -1.0185993 -0.21015154
-0.21656835 -0.08377734 -0.0054403804 0.11496995 -0.46467096 0.24722214 -0.1244757 -0.3286876
0.06319682 0.24117431 -0.3147932 0.03672194 -0.030320764 0.2543892 0.3019603 -0.6480629
00000000: aa43 2dc0 c020 29c0 f87c fabf 8a91 04c0
00000010: 3c35 46c0 f1a3 24c0 946f 3bc0 5890 2dc0
00000020: 7d0d 79c0 0bf0 1bc0 b6b2 33c0 2533 31c0
00000030: 0e06 3ac0 59c1 37c0 4820 3ec0 b410 2dc0
00000040: 01fd 46c0 a008 52c0 22ed 08c0 6bf1 30c0
00000050: d51f 48c0 6d32 29c0 fa4a 55c0 25c0 27c0
00000060: f6f6 4ec0 dc48 17c0 4646 39c0 82a2 37c0
00000070: fdf7 31c0 ac08 2fc0 611b d4bf 62a1 1ac0
00000080: 2e3d 2fc0 c690 26c0 fb26 6dc0 c86b 3bc0
00000090: bef8 34c0 3d88 2fc0 ab31 36c0 455b 32c0
000000a0: 7ed2 67c0 f8ae 24c0 0d2c 3cc0 f844 27c0
000000b0: c942 30c0 786e 38c0 f125 39c0 80a7 1dc0
000000c0: 7f69 2ac0 8f5f 3ac0 e7e0 13c0 c01b 2dc0
000000d0: 869d 50c0 22c8 19c0 98d8 46c0 c4a2 1ec0
000000e0: a11f 47c0 4530 09c0 1092 31c0 6b9b 3ac0
000000f0: 06e7 2cc0 9738 34c0 842e 54c0 d121 02c0
00000100: faea bbc0 32cb 31bf 2926 20bf 544e e1be
00000110: f50e 01bf a30c e63d 19b2 fbbf 7984 91bf
00000120: de83 84bf 3abb 4dbf a453 6cbf b813 92bf
00000130: d09f d2bd 8d3d 81be 83ad 97bd 705a ebbf
00000140: 3c36 56bd 1d99 2cbf 16b1 2ac0 78a0 533e
00000150: 2ab7 a3bf 2a7c 92bf 69fd 8dbe 6aa2 f0be
00000160: 4c0b 83bf a57c 91bf 103e 01c0 821d 083d
00000170: a1b8 0cbf 7229 1ebe 38a7 c4be d082 abbf
00000180: fe58 933e 262c 613e 123c debe d7b5 1e3d
00000190: 1b41 583d ff2a babd 67c3 4c3e a57b 1e3e
000001a0: 23f4 4a3d 33c7 423e 16c5 833d 2e22 d9bd
000001b0: 1c11 40be ba1a 3fbe efc0 51bf b06a b6be
000001c0: 5a17 643d 40ce 86be 955b e53c b27a 903e
000001d0: ed7b 1fbf ec27 743e f0c4 2bbe eef1 d2be
000001e0: a0ec 38be 006c 6f3c 5c8e f7bd aee2 393e
000001f0: eabc 17be 90b3 9f3e 9be2 2d3e d25e e3be
00000200: 8718 2ec0 d841 28c0 3f45 0ac0 b295 02c0
00000210: 855b 3ec0 0ad4 29c0 f960 33c0 96f3 2fc0
00000220: 25a1 66c0 50b1 1cc0 7f5d 31c0 5e96 2bc0
00000230: 3e6b 33c0 8551 34c0 4f0e 33c0 7d5d 2cc0
00000240: 4e56 3fc0 8705 54c0 605c 07c0 ca4f 2fc0
00000250: 9482 44c0 fc94 1fc0 3b9c 5ec0 e269 26c0
00000260: bd7b 48c0 247b 15c0 6d8a 4ac0 eed4 30c0
00000270: 47da 21c0 69e9 27c0 7cf2 cdbf a9d7 19c0
00000280: 330a 38c0 01fa 1ac0 4237 69c0 d0ea 3ac0
00000290: a41d 2ac0 7ecf 24c0 d86e 38c0 ea1c 2fc0
000002a0: 4414 5dc0 6082 2ac0 466e 43c0 92b7 23c0
000002b0: 9eea 3bc0 9568 31c0 b4b5 29c0 9df2 28c0
000002c0: ff23 23c0 1de3 3bc0 6d60 1ac0 abf6 2cc0
000002d0: bdf7 4fc0 5433 26c0 88ab 57c0 18a1 2ec0
000002e0: 0cca 3bc0 41bc 0bc0 ac44 3ac0 9dd3 31c0
000002f0: 0e6a 2bc0 1af3 33c0 8509 4bc0 3019 05c0
00000300: 1669 bbc0 ff53 53bf 4d45 16bf 4813 f3be
00000310: 8283 ecbe 3cfb 27be 5f99 0dc0 fc73 90bf
00000320: 0e59 87bf 8b4d 4bbf 9f90 46bf b222 a5bf
00000330: f995 0ebe f8b3 34bd 37ca 29be 246e c6bf
00000340: e472 9e3d 13e1 12bf d29b 2ac0 e8e1 9c3e
00000350: a214 a5bf e153 b0bf 982c 46be a9ec 0dbf
00000360: 4b0a 91bf ab59 86bf 77fd 05c0 a5c2 fbbd
00000370: db80 d8be 96df 8bbd 961c a6be 8ced 87bf
00000380: bacf 653e 8fd6 0b3e d342 1cbe 9916 cebc
00000390: da72 da3d d17a 39be 6529 e13e c4ef b63e
000003a0: 57aa 17be 7a1c 6f3e fb24 0fbe e0f3 6b3d
000003b0: 902d 62be 1b44 d7be 7661 82bf f731 57be
000003c0: 18c4 5dbe 7493 abbd 3845 b2bb 5d75 eb3d
000003d0: 5ae9 edbe cd27 7d3e 1eed febd be49 a8be
000003e0: 566d 813d 66f6 763e 932c a1be bf69 163d
000003f0: 4063 f8bc 4d3f 823e 8a9a 9a3e 73e7 25bf
